{"modelTopology":{"class_name":"Sequential","config":{"name":"sequential_1","layers":[{"class_name":"Dense","config":{"units":64,"activation":"selu","use_bias":true,"kernel_initializer":{"class_name":"VarianceScaling","config":{"scale":1,"mode":"fan_avg","distribution":"normal","seed":null}},"bias_initializer":{"class_name":"Zeros","config":{}},"kernel_regularizer":null,"bias_regularizer":null,"activity_regularizer":null,"kernel_constraint":null,"bias_constraint":null,"name":"dense_Dense1","trainable":true,"batch_input_shape":[null,63],"dtype":"float32"}},{"class_name":"Dense","config":{"units":128,"activation":"selu","use_bias":true,"kernel_initializer":{"class_name":"VarianceScaling","config":{"scale":1,"mode":"fan_avg","distribution":"normal","seed":null}},"bias_initializer":{"class_name":"Zeros","config":{}},"kernel_regularizer":null,"bias_regularizer":null,"activity_regularizer":null,"kernel_constraint":null,"bias_constraint":null,"name":"dense_Dense2","trainable":true}},{"class_name":"Dropout","config":{"rate":0.1,"noise_shape":null,"seed":null,"name":"dropout_Dropout1","trainable":true}},{"class_name":"Dense","config":{"units":256,"activation":"selu","use_bias":true,"kernel_initializer":{"class_name":"VarianceScaling","config":{"scale":1,"mode":"fan_avg","distribution":"normal","seed":null}},"bias_initializer":{"class_name":"Zeros","config":{}},"kernel_regularizer":null,"bias_regularizer":null,"activity_regularizer":null,"kernel_constraint":null,"bias_constraint":null,"name":"dense_Dense3","trainable":true}},{"class_name":"Dropout","config":{"rate":0.1,"noise_shape":null,"seed":null,"name":"dropout_Dropout2","trainable":true}},{"class_name":"Dense","config":{"units":128,"activation":"selu","use_bias":true,"kernel_initializer":{"class_name":"VarianceScaling","config":{"scale":1,"mode":"fan_avg","distribution":"normal","seed":null}},"bias_initializer":{"class_name":"Zeros","config":{}},"kernel_regularizer":null,"bias_regularizer":null,"activity_regularizer":null,"kernel_constraint":null,"bias_constraint":null,"name":"dense_Dense4","trainable":true}},{"class_name":"Dropout","config":{"rate":0.1,"noise_shape":null,"seed":null,"name":"dropout_Dropout3","trainable":true}},{"class_name":"Dense","config":{"units":64,"activation":"selu","use_bias":true,"kernel_initializer":{"class_name":"VarianceScaling","config":{"scale":1,"mode":"fan_avg","distribution":"normal","seed":null}},"bias_initializer":{"class_name":"Zeros","config":{}},"kernel_regularizer":null,"bias_regularizer":null,"activity_regularizer":null,"kernel_constraint":null,"bias_constraint":null,"name":"dense_Dense5","trainable":true}},{"class_name":"Dropout","config":{"rate":0.1,"noise_shape":null,"seed":null,"name":"dropout_Dropout4","trainable":true}},{"class_name":"Dense","config":{"units":21,"activation":"softmax","use_bias":true,"kernel_initializer":{"class_name":"VarianceScaling","config":{"scale":1,"mode":"fan_avg","distribution":"normal","seed":null}},"bias_initializer":{"class_name":"Zeros","config":{}},"kernel_regularizer":null,"bias_regularizer":null,"activity_regularizer":null,"kernel_constraint":null,"bias_constraint":null,"name":"dense_Dense6","trainable":true}}]},"keras_version":"tfjs-layers 4.4.0","backend":"tensor_flow.js"},"weightsManifest":[{"paths":["weights.bin"],"weights":[{"name":"dense_Dense1/kernel","shape":[63,64],"dtype":"float32"},{"name":"dense_Dense1/bias","shape":[64],"dtype":"float32"},{"name":"dense_Dense2/kernel","shape":[64,128],"dtype":"float32"},{"name":"dense_Dense2/bias","shape":[128],"dtype":"float32"},{"name":"dense_Dense3/kernel","shape":[128,256],"dtype":"float32"},{"name":"dense_Dense3/bias","shape":[256],"dtype":"float32"},{"name":"dense_Dense4/kernel","shape":[256,128],"dtype":"float32"},{"name":"dense_Dense4/bias","shape":[128],"dtype":"float32"},{"name":"dense_Dense5/kernel","shape":[128,64],"dtype":"float32"},{"name":"dense_Dense5/bias","shape":[64],"dtype":"float32"},{"name":"dense_Dense6/kernel","shape":[64,21],"dtype":"float32"},{"name":"dense_Dense6/bias","shape":[21],"dtype":"float32"}]}],"format":"layers-model","generatedBy":"TensorFlow.js tfjs-layers v4.4.0","convertedBy":null}